…
[PhysicalDevice(name='/physical_device:GPU:0', device_type='GPU')]
Model: "trial_model"
__________________________________________________________________________________________________
 Layer (type)                   Output Shape         Param #     Connected to                     
==================================================================================================
 input (InputLayer)             [(None, 124)]        0           []                               
                                                                                                  
 dense (Dense)                  (None, 128)          16000       ['input[0][0]']                  
                                                                                                  
 leaky_re_lu (LeakyReLU)        (None, 128)          0           ['dense[0][0]']                  
                                                                                                  
 dense_1 (Dense)                (None, 128)          16512       ['leaky_re_lu[0][0]']            
                                                                                                  
 leaky_re_lu_1 (LeakyReLU)      (None, 128)          0           ['dense_1[0][0]']                
                                                                                                  
 dense_2 (Dense)                (None, 128)          16512       ['leaky_re_lu_1[0][0]']          
                                                                                                  
 leaky_re_lu_2 (LeakyReLU)      (None, 128)          0           ['dense_2[0][0]']                
                                                                                                  
 dense_3 (Dense)                (None, 128)          16512       ['leaky_re_lu_2[0][0]']          
                                                                                                  
 leaky_re_lu_3 (LeakyReLU)      (None, 128)          0           ['dense_3[0][0]']                
                                                                                                  
 dense_4 (Dense)                (None, 128)          16512       ['leaky_re_lu_3[0][0]']          
                                                                                                  
 leaky_re_lu_4 (LeakyReLU)      (None, 128)          0           ['dense_4[0][0]']                
                                                                                                  
 dense_5 (Dense)                (None, 120)          15480       ['leaky_re_lu_4[0][0]']          
                                                                                                  
 dense_6 (Dense)                (None, 8)            1032        ['leaky_re_lu_4[0][0]']          
                                                                                                  
 concatenate (Concatenate)      (None, 128)          0           ['dense_5[0][0]',                
                                                                  'dense_6[0][0]']                
                                                                                                  
==================================================================================================
Total params: 98,560
Trainable params: 98,560
Non-trainable params: 0
…
768               |?                 |batch_size
RAdam             |?                 |optimizer

Model: "trial_model"
__________________________________________________________________________________________________
 Layer (type)                   Output Shape         Param #     Connected to                     
==================================================================================================
 input (InputLayer)             [(None, 124)]        0           []                               
                                                                                                  
 dense (Dense)                  (None, 896)          112000      ['input[0][0]']                  
                                                                                                  
 leaky_re_lu (LeakyReLU)        (None, 896)          0           ['dense[0][0]']                  
                                                                                                  
 dense_1 (Dense)                (None, 896)          803712      ['leaky_re_lu[0][0]']            
                                                                                                  
 leaky_re_lu_1 (LeakyReLU)      (None, 896)          0           ['dense_1[0][0]']                
                                                                                                  
 dense_2 (Dense)                (None, 1024)         918528      ['leaky_re_lu_1[0][0]']          
                                                                                                  
 leaky_re_lu_2 (LeakyReLU)      (None, 1024)         0           ['dense_2[0][0]']                
                                                                                                  
 dense_3 (Dense)                (None, 256)          262400      ['leaky_re_lu_2[0][0]']          
                                                                                                  
 leaky_re_lu_3 (LeakyReLU)      (None, 256)          0           ['dense_3[0][0]']                
                                                                                                  
 dense_4 (Dense)                (None, 128)          32896       ['leaky_re_lu_3[0][0]']          
                                                                                                  
 leaky_re_lu_4 (LeakyReLU)      (None, 128)          0           ['dense_4[0][0]']                
                                                                                                  
 dense_5 (Dense)                (None, 128)          16512       ['leaky_re_lu_4[0][0]']          
                                                                                                  
 leaky_re_lu_5 (LeakyReLU)      (None, 128)          0           ['dense_5[0][0]']                
                                                                                                  
 dense_6 (Dense)                (None, 120)          15480       ['leaky_re_lu_5[0][0]']          
                                                                                                  
 dense_7 (Dense)                (None, 8)            1032        ['leaky_re_lu_5[0][0]']          
                                                                                                  
 concatenate (Concatenate)      (None, 128)          0           ['dense_6[0][0]',                
                                                                  'dense_7[0][0]']                
                                                                                                  
==================================================================================================
Total params: 2,162,560
Trainable params: 2,162,560
Non-trainable params: 0
…
1152              |768               |batch_size
RAdam             |RAdam             |optimizer

Model: "trial_model"
__________________________________________________________________________________________________
 Layer (type)                   Output Shape         Param #     Connected to                     
==================================================================================================
 input (InputLayer)             [(None, 124)]        0           []                               
                                                                                                  
 dense (Dense)                  (None, 896)          112000      ['input[0][0]']                  
                                                                                                  
 leaky_re_lu (LeakyReLU)        (None, 896)          0           ['dense[0][0]']                  
                                                                                                  
 dense_1 (Dense)                (None, 640)          574080      ['leaky_re_lu[0][0]']            
                                                                                                  
 leaky_re_lu_1 (LeakyReLU)      (None, 640)          0           ['dense_1[0][0]']                
                                                                                                  
 dense_2 (Dense)                (None, 640)          410240      ['leaky_re_lu_1[0][0]']          
                                                                                                  
 leaky_re_lu_2 (LeakyReLU)      (None, 640)          0           ['dense_2[0][0]']                
                                                                                                  
 dense_3 (Dense)                (None, 256)          164096      ['leaky_re_lu_2[0][0]']          
                                                                                                  
 leaky_re_lu_3 (LeakyReLU)      (None, 256)          0           ['dense_3[0][0]']                
                                                                                                  
 dense_4 (Dense)                (None, 896)          230272      ['leaky_re_lu_3[0][0]']          
                                                                                                  
 leaky_re_lu_4 (LeakyReLU)      (None, 896)          0           ['dense_4[0][0]']                
                                                                                                  
 dense_5 (Dense)                (None, 128)          114816      ['leaky_re_lu_4[0][0]']          
                                                                                                  
 leaky_re_lu_5 (LeakyReLU)      (None, 128)          0           ['dense_5[0][0]']                
                                                                                                  
 dense_6 (Dense)                (None, 120)          15480       ['leaky_re_lu_5[0][0]']          
                                                                                                  
 dense_7 (Dense)                (None, 8)            1032        ['leaky_re_lu_5[0][0]']          
                                                                                                  
 concatenate (Concatenate)      (None, 128)          0           ['dense_6[0][0]',                
                                                                  'dense_7[0][0]']                
                                                                                                  
==================================================================================================
Total params: 1,622,016
Trainable params: 1,622,016
Non-trainable params: 0
…
3072              |1152              |batch_size
RAdam             |RAdam             |optimizer

Model: "trial_model"
__________________________________________________________________________________________________
 Layer (type)                   Output Shape         Param #     Connected to                     
==================================================================================================
 input (InputLayer)             [(None, 124)]        0           []                               
                                                                                                  
 dense (Dense)                  (None, 640)          80000       ['input[0][0]']                  
                                                                                                  
 leaky_re_lu (LeakyReLU)        (None, 640)          0           ['dense[0][0]']                  
                                                                                                  
 dense_1 (Dense)                (None, 768)          492288      ['leaky_re_lu[0][0]']            
                                                                                                  
 leaky_re_lu_1 (LeakyReLU)      (None, 768)          0           ['dense_1[0][0]']                
                                                                                                  
 dense_2 (Dense)                (None, 640)          492160      ['leaky_re_lu_1[0][0]']          
                                                                                                  
 leaky_re_lu_2 (LeakyReLU)      (None, 640)          0           ['dense_2[0][0]']                
                                                                                                  
 dense_3 (Dense)                (None, 896)          574336      ['leaky_re_lu_2[0][0]']          
                                                                                                  
 leaky_re_lu_3 (LeakyReLU)      (None, 896)          0           ['dense_3[0][0]']                
                                                                                                  
 dense_4 (Dense)                (None, 896)          803712      ['leaky_re_lu_3[0][0]']          
                                                                                                  
 leaky_re_lu_4 (LeakyReLU)      (None, 896)          0           ['dense_4[0][0]']                
                                                                                                  
 dense_5 (Dense)                (None, 512)          459264      ['leaky_re_lu_4[0][0]']          
                                                                                                  
 leaky_re_lu_5 (LeakyReLU)      (None, 512)          0           ['dense_5[0][0]']                
                                                                                                  
 dense_6 (Dense)                (None, 640)          328320      ['leaky_re_lu_5[0][0]']          
                                                                                                  
 leaky_re_lu_6 (LeakyReLU)      (None, 640)          0           ['dense_6[0][0]']                
                                                                                                  
 dense_7 (Dense)                (None, 640)          410240      ['leaky_re_lu_6[0][0]']          
                                                                                                  
 leaky_re_lu_7 (LeakyReLU)      (None, 640)          0           ['dense_7[0][0]']                
                                                                                                  
 dense_8 (Dense)                (None, 640)          410240      ['leaky_re_lu_7[0][0]']          
                                                                                                  
 leaky_re_lu_8 (LeakyReLU)      (None, 640)          0           ['dense_8[0][0]']                
                                                                                                  
 dense_9 (Dense)                (None, 512)          328192      ['leaky_re_lu_8[0][0]']          
                                                                                                  
 leaky_re_lu_9 (LeakyReLU)      (None, 512)          0           ['dense_9[0][0]']                
                                                                                                  
 dense_10 (Dense)               (None, 128)          65664       ['leaky_re_lu_9[0][0]']          
                                                                                                  
 leaky_re_lu_10 (LeakyReLU)     (None, 128)          0           ['dense_10[0][0]']               
                                                                                                  
 dense_11 (Dense)               (None, 120)          15480       ['leaky_re_lu_10[0][0]']         
                                                                                                  
 dense_12 (Dense)               (None, 8)            1032        ['leaky_re_lu_10[0][0]']         
                                                                                                  
 concatenate (Concatenate)      (None, 128)          0           ['dense_11[0][0]',               
                                                                  'dense_12[0][0]']               
                                                                                                  
==================================================================================================
Total params: 4,460,928
Trainable params: 4,460,928
Non-trainable params: 0
…
