…
[PhysicalDevice(name='/physical_device:GPU:0', device_type='GPU')]
Model: "trial_model"
__________________________________________________________________________________________________
 Layer (type)                   Output Shape         Param #     Connected to                     
==================================================================================================
 input (InputLayer)             [(None, 124)]        0           []                               
                                                                                                  
 dense (Dense)                  (None, 128)          16000       ['input[0][0]']                  
                                                                                                  
 leaky_re_lu (LeakyReLU)        (None, 128)          0           ['dense[0][0]']                  
                                                                                                  
 dense_1 (Dense)                (None, 128)          16512       ['leaky_re_lu[0][0]']            
                                                                                                  
 leaky_re_lu_1 (LeakyReLU)      (None, 128)          0           ['dense_1[0][0]']                
                                                                                                  
 dense_2 (Dense)                (None, 128)          16512       ['leaky_re_lu_1[0][0]']          
                                                                                                  
 leaky_re_lu_2 (LeakyReLU)      (None, 128)          0           ['dense_2[0][0]']                
                                                                                                  
 dense_3 (Dense)                (None, 128)          16512       ['leaky_re_lu_2[0][0]']          
                                                                                                  
 leaky_re_lu_3 (LeakyReLU)      (None, 128)          0           ['dense_3[0][0]']                
                                                                                                  
 dense_4 (Dense)                (None, 128)          16512       ['leaky_re_lu_3[0][0]']          
                                                                                                  
 leaky_re_lu_4 (LeakyReLU)      (None, 128)          0           ['dense_4[0][0]']                
                                                                                                  
 dense_5 (Dense)                (None, 120)          15480       ['leaky_re_lu_4[0][0]']          
                                                                                                  
 dense_6 (Dense)                (None, 8)            1032        ['leaky_re_lu_4[0][0]']          
                                                                                                  
 concatenate (Concatenate)      (None, 128)          0           ['dense_5[0][0]',                
                                                                  'dense_6[0][0]']                
                                                                                                  
==================================================================================================
Total params: 98,560
Trainable params: 98,560
Non-trainable params: 0
…
1152              |?                 |batch_size
QHAdam            |?                 |optimizer

Model: "trial_model"
__________________________________________________________________________________________________
 Layer (type)                   Output Shape         Param #     Connected to                     
==================================================================================================
 input (InputLayer)             [(None, 124)]        0           []                               
                                                                                                  
 dense (Dense)                  (None, 256)          32000       ['input[0][0]']                  
                                                                                                  
 leaky_re_lu (LeakyReLU)        (None, 256)          0           ['dense[0][0]']                  
                                                                                                  
 dense_1 (Dense)                (None, 384)          98688       ['leaky_re_lu[0][0]']            
                                                                                                  
 leaky_re_lu_1 (LeakyReLU)      (None, 384)          0           ['dense_1[0][0]']                
                                                                                                  
 dense_2 (Dense)                (None, 768)          295680      ['leaky_re_lu_1[0][0]']          
                                                                                                  
 leaky_re_lu_2 (LeakyReLU)      (None, 768)          0           ['dense_2[0][0]']                
                                                                                                  
 dense_3 (Dense)                (None, 128)          98432       ['leaky_re_lu_2[0][0]']          
                                                                                                  
 leaky_re_lu_3 (LeakyReLU)      (None, 128)          0           ['dense_3[0][0]']                
                                                                                                  
 dense_4 (Dense)                (None, 128)          16512       ['leaky_re_lu_3[0][0]']          
                                                                                                  
 leaky_re_lu_4 (LeakyReLU)      (None, 128)          0           ['dense_4[0][0]']                
                                                                                                  
 dense_5 (Dense)                (None, 128)          16512       ['leaky_re_lu_4[0][0]']          
                                                                                                  
 leaky_re_lu_5 (LeakyReLU)      (None, 128)          0           ['dense_5[0][0]']                
                                                                                                  
 dense_6 (Dense)                (None, 128)          16512       ['leaky_re_lu_5[0][0]']          
                                                                                                  
 leaky_re_lu_6 (LeakyReLU)      (None, 128)          0           ['dense_6[0][0]']                
                                                                                                  
 dense_7 (Dense)                (None, 128)          16512       ['leaky_re_lu_6[0][0]']          
                                                                                                  
 leaky_re_lu_7 (LeakyReLU)      (None, 128)          0           ['dense_7[0][0]']                
                                                                                                  
 dense_8 (Dense)                (None, 128)          16512       ['leaky_re_lu_7[0][0]']          
                                                                                                  
 leaky_re_lu_8 (LeakyReLU)      (None, 128)          0           ['dense_8[0][0]']                
                                                                                                  
 dense_9 (Dense)                (None, 128)          16512       ['leaky_re_lu_8[0][0]']          
                                                                                                  
 leaky_re_lu_9 (LeakyReLU)      (None, 128)          0           ['dense_9[0][0]']                
                                                                                                  
 dense_10 (Dense)               (None, 128)          16512       ['leaky_re_lu_9[0][0]']          
                                                                                                  
 leaky_re_lu_10 (LeakyReLU)     (None, 128)          0           ['dense_10[0][0]']               
                                                                                                  
 dense_11 (Dense)               (None, 120)          15480       ['leaky_re_lu_10[0][0]']         
                                                                                                  
 dense_12 (Dense)               (None, 8)            1032        ['leaky_re_lu_10[0][0]']         
                                                                                                  
 concatenate (Concatenate)      (None, 128)          0           ['dense_11[0][0]',               
                                                                  'dense_12[0][0]']               
                                                                                                  
==================================================================================================
Total params: 656,896
Trainable params: 656,896
Non-trainable params: 0
…
1536              |1152              |batch_size
RAdam             |QHAdam            |optimizer

Model: "trial_model"
__________________________________________________________________________________________________
 Layer (type)                   Output Shape         Param #     Connected to                     
==================================================================================================
 input (InputLayer)             [(None, 124)]        0           []                               
                                                                                                  
 dense (Dense)                  (None, 384)          48000       ['input[0][0]']                  
                                                                                                  
 leaky_re_lu (LeakyReLU)        (None, 384)          0           ['dense[0][0]']                  
                                                                                                  
 dense_1 (Dense)                (None, 640)          246400      ['leaky_re_lu[0][0]']            
                                                                                                  
 leaky_re_lu_1 (LeakyReLU)      (None, 640)          0           ['dense_1[0][0]']                
                                                                                                  
 dense_2 (Dense)                (None, 384)          246144      ['leaky_re_lu_1[0][0]']          
                                                                                                  
 leaky_re_lu_2 (LeakyReLU)      (None, 384)          0           ['dense_2[0][0]']                
                                                                                                  
 dense_3 (Dense)                (None, 768)          295680      ['leaky_re_lu_2[0][0]']          
                                                                                                  
 leaky_re_lu_3 (LeakyReLU)      (None, 768)          0           ['dense_3[0][0]']                
                                                                                                  
 dense_4 (Dense)                (None, 512)          393728      ['leaky_re_lu_3[0][0]']          
                                                                                                  
 leaky_re_lu_4 (LeakyReLU)      (None, 512)          0           ['dense_4[0][0]']                
                                                                                                  
 dense_5 (Dense)                (None, 512)          262656      ['leaky_re_lu_4[0][0]']          
                                                                                                  
 leaky_re_lu_5 (LeakyReLU)      (None, 512)          0           ['dense_5[0][0]']                
                                                                                                  
 dense_6 (Dense)                (None, 256)          131328      ['leaky_re_lu_5[0][0]']          
                                                                                                  
 leaky_re_lu_6 (LeakyReLU)      (None, 256)          0           ['dense_6[0][0]']                
                                                                                                  
 dense_7 (Dense)                (None, 384)          98688       ['leaky_re_lu_6[0][0]']          
                                                                                                  
 leaky_re_lu_7 (LeakyReLU)      (None, 384)          0           ['dense_7[0][0]']                
                                                                                                  
 dense_8 (Dense)                (None, 256)          98560       ['leaky_re_lu_7[0][0]']          
                                                                                                  
 leaky_re_lu_8 (LeakyReLU)      (None, 256)          0           ['dense_8[0][0]']                
                                                                                                  
 dense_9 (Dense)                (None, 1024)         263168      ['leaky_re_lu_8[0][0]']          
                                                                                                  
 leaky_re_lu_9 (LeakyReLU)      (None, 1024)         0           ['dense_9[0][0]']                
                                                                                                  
 dense_10 (Dense)               (None, 128)          131200      ['leaky_re_lu_9[0][0]']          
                                                                                                  
 leaky_re_lu_10 (LeakyReLU)     (None, 128)          0           ['dense_10[0][0]']               
                                                                                                  
 dense_11 (Dense)               (None, 128)          16512       ['leaky_re_lu_10[0][0]']         
                                                                                                  
 leaky_re_lu_11 (LeakyReLU)     (None, 128)          0           ['dense_11[0][0]']               
                                                                                                  
 dense_12 (Dense)               (None, 128)          16512       ['leaky_re_lu_11[0][0]']         
                                                                                                  
 leaky_re_lu_12 (LeakyReLU)     (None, 128)          0           ['dense_12[0][0]']               
                                                                                                  
 dense_13 (Dense)               (None, 120)          15480       ['leaky_re_lu_12[0][0]']         
                                                                                                  
 dense_14 (Dense)               (None, 8)            1032        ['leaky_re_lu_12[0][0]']         
                                                                                                  
 concatenate (Concatenate)      (None, 128)          0           ['dense_13[0][0]',               
                                                                  'dense_14[0][0]']               
                                                                                                  
==================================================================================================
Total params: 2,265,088
Trainable params: 2,265,088
Non-trainable params: 0
…
192               |96                |batch_size
RAdam             |RAdam             |optimizer

Model: "trial_model"
__________________________________________________________________________________________________
 Layer (type)                   Output Shape         Param #     Connected to                     
==================================================================================================
 input (InputLayer)             [(None, 124)]        0           []                               
                                                                                                  
 dense (Dense)                  (None, 640)          80000       ['input[0][0]']                  
                                                                                                  
 leaky_re_lu (LeakyReLU)        (None, 640)          0           ['dense[0][0]']                  
                                                                                                  
 dense_1 (Dense)                (None, 256)          164096      ['leaky_re_lu[0][0]']            
                                                                                                  
 leaky_re_lu_1 (LeakyReLU)      (None, 256)          0           ['dense_1[0][0]']                
                                                                                                  
 dense_2 (Dense)                (None, 896)          230272      ['leaky_re_lu_1[0][0]']          
                                                                                                  
 leaky_re_lu_2 (LeakyReLU)      (None, 896)          0           ['dense_2[0][0]']                
                                                                                                  
 dense_3 (Dense)                (None, 768)          688896      ['leaky_re_lu_2[0][0]']          
                                                                                                  
 leaky_re_lu_3 (LeakyReLU)      (None, 768)          0           ['dense_3[0][0]']                
                                                                                                  
 dense_4 (Dense)                (None, 896)          689024      ['leaky_re_lu_3[0][0]']          
                                                                                                  
 leaky_re_lu_4 (LeakyReLU)      (None, 896)          0           ['dense_4[0][0]']                
                                                                                                  
 dense_5 (Dense)                (None, 128)          114816      ['leaky_re_lu_4[0][0]']          
                                                                                                  
 leaky_re_lu_5 (LeakyReLU)      (None, 128)          0           ['dense_5[0][0]']                
                                                                                                  
 dense_6 (Dense)                (None, 120)          15480       ['leaky_re_lu_5[0][0]']          
                                                                                                  
 dense_7 (Dense)                (None, 8)            1032        ['leaky_re_lu_5[0][0]']          
                                                                                                  
 concatenate (Concatenate)      (None, 128)          0           ['dense_6[0][0]',                
                                                                  'dense_7[0][0]']                
                                                                                                  
==================================================================================================
Total params: 1,983,616
Trainable params: 1,983,616
Non-trainable params: 0
…
